…
 Layer (type)                   Output Shape         Param #     Connected to                     
==================================================================================================
 input1 (InputLayer)            [(None, 59)]         0           []                               
                                                                                                  
 input2 (InputLayer)            [(None, 40)]         0           []                               
                                                                                                  
 v1_encoder_0 (Dense)           (None, 500)          30000       ['input1[0][0]']                 
                                                                                                  
 v2_encoder_0 (Dense)           (None, 500)          20500       ['input2[0][0]']                 
                                                                                                  
 v1_encoder_1 (Dense)           (None, 500)          250500      ['v1_encoder_0[0][0]']           
                                                                                                  
 v1_Fencoder (Functional)       (None, 10)           1302510     ['input1[0][0]']                 
                                                                                                  
 v2_Fencoder (Functional)       (None, 10)           1293010     ['input2[0][0]']                 
                                                                                                  
 v2_encoder_1 (Dense)           (None, 500)          250500      ['v2_encoder_0[0][0]']           
                                                                                                  
 v1_encoder_2 (Dense)           (None, 2000)         1002000     ['v1_encoder_1[0][0]']           
                                                                                                  
 concatenate (Concatenate)      (None, 20)           0           ['v1_Fencoder[0][0]',            
                                                                  'v2_Fencoder[0][0]']            
                                                                                                  
 v2_encoder_2 (Dense)           (None, 2000)         1002000     ['v2_encoder_1[0][0]']           
                                                                                                  
 embedding1 (Dense)             (None, 10)           20010       ['v1_encoder_2[0][0]']           
                                                                                                  
 v1_degrade_0 (Dense)           (None, 500)          10500       ['concatenate[0][0]']            
                                                                                                  
 embedding2 (Dense)             (None, 10)           20010       ['v2_encoder_2[0][0]']           
                                                                                                  
 v2_degrade_0 (Dense)           (None, 500)          10500       ['concatenate[0][0]']            
                                                                                                  
 v1_decoder_3 (Dense)           (None, 2000)         22000       ['embedding1[0][0]']             
                                                                                                  
 v1_degrade_1 (Dense)           (None, 2000)         1002000     ['v1_degrade_0[0][0]']           
                                                                                                  
 v2_decoder_3 (Dense)           (None, 2000)         22000       ['embedding2[0][0]']             
                                                                                                  
 v2_degrade_1 (Dense)           (None, 2000)         1002000     ['v2_degrade_0[0][0]']           
                                                                                                  
 v1_decoder_2 (Dense)           (None, 500)          1000500     ['v1_decoder_3[0][0]']           
                                                                                                  
 v1_degrade_2 (Dense)           (None, 500)          1000500     ['v1_degrade_1[0][0]']           
                                                                                                  
 v2_decoder_2 (Dense)           (None, 500)          1000500     ['v2_decoder_3[0][0]']           
                                                                                                  
 v2_degrade_2 (Dense)           (None, 500)          1000500     ['v2_degrade_1[0][0]']           
                                                                                                  
 v1_decoder_1 (Dense)           (None, 500)          250500      ['v1_decoder_2[0][0]']           
                                                                                                  
 degrade_embedding1 (Dense)     (None, 10)           5010        ['v1_degrade_2[0][0]']           
                                                                                                  
 v2_decoder_1 (Dense)           (None, 500)          250500      ['v2_decoder_2[0][0]']           
                                                                                                  
 degrade_embedding2 (Dense)     (None, 10)           5010        ['v2_degrade_2[0][0]']           
                                                                                                  
 clustering1 (ClusteringLayer)  (None, 21)           210         ['embedding1[0][0]']             
                                                                                                  
 clustering2 (ClusteringLayer)  (None, 21)           210         ['embedding2[0][0]']             
                                                                                                  
 v1_decoder_0 (Dense)           (None, 59)           29559       ['v1_decoder_1[0][0]']           
                                                                                                  
 lambda (Lambda)                (None, 2, 10)        0           ['embedding1[0][0]',             
                                                                  'degrade_embedding1[0][0]']     
                                                                                                  
 v2_decoder_0 (Dense)           (None, 40)           20040       ['v2_decoder_1[0][0]']           
                                                                                                  
 lambda_1 (Lambda)              (None, 2, 10)        0           ['embedding2[0][0]',             
                                                                  'degrade_embedding2[0][0]']     
                                                                                                  
 lambda_2 (Lambda)              (None, 2, 21)        0           ['clustering1[0][0]',            
                                                                  'clustering2[0][0]']            
                                                                                                  
==================================================================================================
Total params: 9,227,559
Trainable params: 9,227,559
Non-trainable params: 0
…
